pytorch-fundamentals/module-2/trained_student_model.pth (torch, 953236 bytes, 6 tensors)

weight f4 [256, 784]
000000 d8 ce 0b 3e c7 33 0e 3e 6f 8f ce 3d e0 6c 11 3e
       0.13653123 0.13886939 0.100859515 0.14201689
000010 34 1e ca 3d 87 d8 e8 3d af a1 d0 3d a0 96 0b 3e
       0.09869042 0.11369424 0.10187089 0.13631678
000020 01 a2 0e 3e 30 b3 a2 3d 56 59 0c 3e c5 86 eb 3d
       0.13928987 0.079443336 0.13705954 0.115003146
000030 b9 97 09 3e 63 a8 e7 3d ba b9 fa 3d 1f 31 c6 3d
       0.13436784 0.11311414 0.12242456 0.09677338
000040 17 c4 0d 3e 41 e1 ed 3d a7 fb bd 3d 0a 7e ec 3d
       0.13844334 0.116152294 0.092765145 0.115474775
000050 43 6b b4 3d 1c 1e d7 3d f0 fc c1 3d b2 1b 08 3e
       0.08809521 0.1050379 0.09472072 0.13291815
000060 81 f5 a5 3d dc f9 bd 3d b1 0a cb 3d 89 b7 b3 3d
       0.08103467 0.092761725 0.099141486 0.08775241
000070 49 99 e6 3d 5c 71 97 3d e7 91 10 3e 5f 5c 94 3d
       0.112597056 0.073946685 0.14118157 0.07244181
000080 43 11 08 3e da fb f2 3d e4 6d 07 3e 10 24 20 3e
       0.13287835 0.11864443 0.13225514 0.15638757
000090 55 6e f5 3d 43 72 d8 3d 53 43 e7 3c 35 17 6e 3c
       0.11983935 0.10568669 0.028230345 0.0145319
0000a0 d6 68 77 3d ef 28 b6 3d 75 3a 15 3e 71 f6 24 3e
       0.060402714 0.08894526 0.14573081 0.16109635
0000b0 69 fa e3 3d 90 2c 5c 3d 99 34 2f 3d 38 b0 f5 3c
       0.11131746 0.053753436 0.04277477 0.029991254
0000c0 f7 ed d1 3d af 53 bd 3d f2 20 8e 3d c2 2d d1 3d
       0.10250466 0.09244477 0.069398776 0.10213806
0000d0 30 7d a4 3d a4 80 0e 3e 6f bb f4 3d df fd fd 3d
       0.0803169 0.1391626 0.119498126 0.12401938
0000e0 ca d3 f6 3d b7 d2 dc 3d 6a a3 02 3e e2 87 37 3d
       0.12052114 0.10782378 0.1275765 0.044807322
0000f0 41 aa 84 3d f8 78 60 ba 8f c0 a4 3c d1 45 a9 bd
       0.06477786 -0.00085629476 0.02011135 -0.082652695
000100 58 c6 96 bd 07 71 75 bc f0 f2 65 3d 73 da 75 3d
       -0.0736205 -0.014980561 0.056139886 0.060022783
000110 f0 34 a1 3d 62 a4 c9 3d 93 c6 30 3e 19 f1 e6 3d
       0.07871425 0.09845807 0.1726325 0.112764545
000120 56 07 78 bc 4a c3 74 be 47 40 a8 be ec 05 8b be
       -0.015138468 -0.23902622 -0.3286154 -0.27152956
000130 80 fa 26 be 23 bc b2 bc 0c 21 ae 3a df 86 0d 3e
       -0.16306496 -0.021818226 0.0013284995 0.1382098
000140 34 dd a9 3d dd 4d a2 3d c6 ba 00 3e 87 21 c2 3d
       0.08294144 0.079250075 0.12571248 0.09479051
000150 2f 0b 06 3e 06 6f ca 3d 6a 74 c9 3d 2a bc c9 bc
       0.13090204 0.09884457 0.09836657 -0.024625856
000160 32 77 40 bd a7 b7 d6 bd 3d e5 3c be 92 b3 a1 be
       -0.046988674 -0.10484248 -0.18446822 -0.31582314
000170 fe 2c 99 be d1 83 73 be f2 75 ca bd de b6 4c 3d
       -0.2991714 -0.23780753 -0.098857775 0.049979083
000180 12 25 91 3e 00 1b 55 3e 34 30 68 3e fc 21 02 3e
       0.28348595 0.20811081 0.22674638 0.12708277
000190 4a 5b 03 bc 61 3a 03 be b6 04 b8 be 86 a8 ec be
       -0.0080173705 -0.12815239 -0.35941094 -0.46222323
0001a0 89 ee d2 be 1c d7 a3 be 66 c4 88 be ad 32 8b bd
       -0.41197613 -0.32000053 -0.2671234 -0.06796775
0001b0 3e a6 12 3d 9c ca b3 3d 66 c1 15 3e 8e 82 ed 3d
       0.035803072 0.08778879 0.14624557 0.11597167
0001c0 19 3b f6 3d 81 97 96 3d 22 4e 84 3c a6 1d 9b bd
       0.12022991 0.07353116 0.016150538 -0.07574014
0001d0 9f 0f da bd cc 4f 70 be 45 5b 87 be 14 96 a4 be
       -0.10647511 -0.2346794 -0.2643682 -0.3214575
0001e0 d8 b6 92 be bd 5b 52 be 86 84 bb bd c3 1c 46 3d
       -0.28655124 -0.20542808 -0.09156136 0.048367273
0001f0 19 64 7b 3e 2c c1 58 3e 12 40 4b 3e f5 7d 3e 3e
       0.24549903 0.21167439 0.1984866 0.18602736
000200 7f 33 35 3e 93 03 2c bd d4 8b 4c be 2f d6 ae be
       0.17695425 -0.041995596 -0.19975215 -0.34147784
000210 64 41 14 bf 41 1b fd be eb 00 00 bf a9 2c 85 be
       -0.5791228 -0.49434856 -0.500014 -0.26010635
000220 82 f5 46 bd c1 a3 ae 3c 42 84 f4 3d cb b7 cf 3d
       -0.04857398 0.021318318 0.11939289 0.101424776
000230 a8 aa fb 3d 6f 94 a2 3d 27 9a 2a 3d 55 3c 42 be
       0.122884095 0.07938468 0.041650917 -0.18968327
000240 27 76 64 be ab 0a 40 be f5 08 37 be 09 6e 64 be
       -0.22310697 -0.1875407 -0.1787451 -0.223076
000250 fe d7 07 be d7 fe 80 bd 74 c0 d3 3d b5 52 4f 3d
       -0.13265988 -0.06298607 0.10339442 0.050615985
000260 9b e1 2a 3e a1 30 23 3e c4 18 78 3e c6 5d 6d 3e
       0.16687624 0.15936519 0.24228197 0.23180303
000270 b4 4c 91 3e 35 3c 4d 3e 1a e0 ca 3c a9 82 4b be
       0.28378832 0.20042498 0.024765063 -0.19874062
000280 cf 3b eb be a5 90 14 bf 8e cb 1e bf 84 60 ed be
       -0.45944068 -0.5803321 -0.6202935 -0.46362698
000290 f0 26 e7 bd 56 73 59 3c 01 44 c4 3d b4 42 0f 3e
       -0.112867236 0.013272127 0.09583283 0.13990289
0002a0 01 01 ef 3d d1 fd c4 3d 1e 7a 80 bd a6 b8 8c be
       0.11670113 0.09618724 -0.06273292 -0.27484626
0002b0 da 67 71 be 39 63 1c be 0b 7c 03 be 71 d3 5e be
       -0.23574772 -0.15272225 -0.12840287 -0.21760346
0002c0 21 e0 df bd ab 96 49 3d 95 a3 00 3e 50 ef 24 3b
       -0.10931421 0.049215954 0.12562402 0.0025167055
0002d0 22 88 34 3d 2e ec 03 bd aa b7 5f bb 85 7f cd 3d
       0.04407514 -0.03220766 -0.0034136572 0.10034088
0002e0 12 d7 4e 3e e1 16 81 3e f5 21 66 3e 06 67 aa 3d
       0.2019923 0.25212768 0.22473891 0.083204314
0002f0 ab fb 09 be 31 48 2a be dc d4 a7 be fb ad eb be
       -0.1347491 -0.16629101 -0.32779586 -0.46031174
000300 0d e9 ac be 85 21 b4 bd 30 52 d6 3d b6 51 cf 3d
       -0.33771554 -0.08795456 0.10464895 0.10123007
000310 9b c2 df 3d 76 20 d8 3d cb 00 b6 bd d1 99 a6 be
       0.1092579 0.105530664 -0.0888687 -0.32539228
000320 3a a0 9b be 77 6c 7b bd 0b 57 5b 3d 81 5a a5 bd
       -0.3039568 -0.061382737 0.053549808 -0.08073903
000330 22 62 6c 3d 33 8c c7 3c 21 89 b0 3d 31 70 13 3d
       0.057710774 0.024358844 0.08619905 0.035995666
000340 1f 46 8c bc 5a 81 0a be 09 1a 0d bd 65 06 88 3d
       -0.01712328 -0.13525906 -0.034448657 0.06641845
000350 e0 7e b6 3d c7 f4 01 3e 0e 9f 5b 3e 93 34 75 3e
       0.08910918 0.12691031 0.21447393 0.23945837
000360 f4 6b 9c 3d 6b b9 05 3c 61 46 23 be e8 d5 e7 be
       0.07637778 0.008161883 -0.15944816 -0.45280385
000370 6c a2 10 bf 83 ee 90 be 49 e4 a2 3d 6c 08 d1 3d
       -0.56497836 -0.2830697 0.07953698 0.102066845
000380 4d 19 96 3d fd 4f 03 3e f3 6d 8e bd 38 b2 49 be
       0.073290445 0.12823482 -0.06954565 -0.19696891
000390 c4 5d c1 bd fe 3c 04 3d c2 b8 ba 3c 63 bd 01 3d
       -0.094417125 0.03228473 0.022793178 0.031674754
0003a0 4a bb 4d 3d 57 96 15 3d 1b f2 b8 3d db 47 e2 3d
       0.05022744 0.03652033 0.09030553 0.110488616
0003b0 d7 03 de 3c e5 b1 0b be 81 67 0a be a6 3c d5 bd
       0.02710144 -0.1364208 -0.13516046 -0.104119584
0003c0 5a a5 a2 3d 27 01 25 3e e9 03 68 3e 1e 03 5f 3e
       0.079416946 0.16113721 0.22657742 0.21778533
0003d0 25 7b 51 3d 35 3a a2 bc 6e a8 23 bd e3 9c 19 be
       0.05114283 -0.019803146 -0.03995555 -0.15001254
0003e0 ce 7e d1 be db 30 86 be a9 78 a9 3d 6e 0a aa 3d
       -0.40917057 -0.2620915 0.08274967 0.083027706
0003f0 4a 76 d2 3d 11 b1 bc 3d 8a 31 57 bd d2 8a 6e be
       0.10276468 0.0921346 -0.05253748 -0.23295143

bias f4 [256]
000000 17 f3 b3 bd 08 0b 71 bd fc fa b8 bd 0c 60 e9 3c
       -0.087866 -0.05884841 -0.090322465 0.028488182
000010 f3 42 2c 3c a7 01 7c bd 1b 5f 60 bd 79 6e bc bd
       0.010514009 -0.061525013 -0.0547782 -0.092007585
000020 f6 bf c2 bd ab 98 a9 bc c9 14 c6 bd f7 15 ee bc
       -0.0950927 -0.02070268 -0.09671933 -0.029063208
000030 18 85 e3 3c 01 55 00 bc 11 f6 be bc 02 2f 5a bd
       0.027773425 -0.0078327665 -0.023310693 -0.053267486
000040 f3 f6 5f bd 6a 02 1f 3d f7 f8 91 bc 30 7e 7f 3b
       -0.05467887 0.03882066 -0.017818911 0.0038985126
000050 25 38 46 3c 01 d9 a7 bc 25 83 11 bd 4d 2c 38 3d
       0.012098347 -0.020489218 -0.03552546 0.044964124
000060 d5 2c 49 bc db 0c be bd bd 5e 0c bd bc 13 1b bc
       -0.012278755 -0.09279796 -0.034270037 -0.009465154
000070 6d d0 40 bd 4c d8 65 bd 97 b4 83 3c 12 89 50 bd
       -0.04707377 -0.05611448 0.016077323 -0.05091197
000080 c2 18 c5 bd 85 58 55 bb f6 6e 0a bd 94 84 9a bd
       -0.09623863 -0.0032553982 -0.033797227 -0.075448185
000090 d3 80 b1 3c cd 89 b0 3c 10 fe 2c bd 4b 23 f7 bc
       0.021667873 0.021550084 -0.04223448 -0.030168196
0000a0 80 e0 5f bd f3 96 16 bc 78 ba 24 3d 90 d4 56 bd
       -0.05465746 -0.009191263 0.040216893 -0.05244881
0000b0 2c f0 35 bd e7 ff 85 bd ae 3e 28 bd 38 2b ae bc
       -0.0444185 -0.0654295 -0.0410754 -0.021260843
0000c0 f2 68 ef bd f1 20 93 bb 9b 03 f3 bd a7 37 90 3d
       -0.116899386 -0.004490011 -0.11865922 0.07041865
0000d0 3e 7b 0b bd c4 95 20 bd f5 b1 00 bc b8 8c 8f 3c
       -0.03405308 -0.039205328 -0.007854928 0.017523155
0000e0 6f f7 73 ba 49 0a 8c bd 49 4e 04 bc 6a f4 be bd
       -0.0009306585 -0.06837899 -0.008075305 -0.09323962
0000f0 00 be 1b bd 41 10 d9 bc 2f 43 a4 bd 64 c0 0e bc
       -0.038022995 -0.026497008 -0.08020627 -0.008712862
000100 c1 a7 8d bd b6 ef 26 bd 14 15 a4 bd 13 21 53 bd
       -0.06916762 -0.04075595 -0.08011833 -0.051545214
000110 8c 93 f9 bc e5 b5 03 be 93 87 bd bc 78 45 e7 bd
       -0.030465864 -0.12862356 -0.023135936 -0.11292547
000120 01 68 4d bc da 71 31 3d aa 22 29 bd 51 a6 de bc
       -0.0125370035 0.043321468 -0.041292824 -0.027178915
000130 bc ed 26 3d f8 7c ab bd 68 e4 e9 ba 6c 95 07 bd
       0.040754065 -0.08373445 -0.001784456 -0.033101484
000140 d0 e8 cd bd e0 0d 6b bd f4 4f bd bc 8b 60 80 3c
       -0.10054171 -0.05738628 -0.023109414 0.015671035
000150 9a f3 ef bd 31 93 15 bd b5 cd a2 bd 61 f0 4a bd
       -0.11716385 -0.036517326 -0.07949392 -0.04954565
000160 de 4e 82 bc 2e da c8 bd c5 f8 aa bd 86 6c 04 be
       -0.015906747 -0.098072395 -0.0834823 -0.12932023
000170 fd b5 6a bd 0f b1 bf bd 1c f5 0e bc 98 f5 0a be
       -0.057302464 -0.09359943 -0.008725431 -0.13570249
000180 87 a8 ae bd 61 af ac bc 55 1b 28 bd 6d 38 13 bd
       -0.08528238 -0.02107972 -0.04104169 -0.035942484
000190 48 dd 60 bd c7 e8 8b bd c2 b4 d6 bd d2 39 61 bd
       -0.05489853 -0.06831508 -0.104836956 -0.054986782
0001a0 7d d1 99 bd 26 aa 02 be 02 fe b7 bd 27 06 bb bb
       -0.0751066 -0.12760219 -0.08983995 -0.0057075205
0001b0 00 58 85 bd b6 57 d3 bc 96 00 83 bc ba 52 6c bd
       -0.06510925 -0.02579866 -0.01599149 -0.05769608
0001c0 3b 2e 89 bd 16 6c 89 bd 94 a3 12 bd 59 47 ec bc
       -0.06698271 -0.06710069 -0.03580053 -0.028842615
0001d0 bc 58 c7 bc 76 06 ac bd 00 8d 97 bd 45 04 c3 bd
       -0.024334304 -0.0839967 -0.073999405 -0.09522299
0001e0 cd 79 29 bc c2 d2 cf bc 99 32 79 bc 25 4f 84 bd
       -0.010343981 -0.025369052 -0.015209817 -0.06460408
0001f0 3b 35 f3 bc c3 af 2f 3c a7 12 d4 bc d1 53 ca 3b
       -0.029688468 0.010723057 -0.0258878 0.0061745425
000200 fa 8d be bc b4 76 06 be 19 1a 4e bd 40 52 84 bd
       -0.02326106 -0.13131219 -0.050317857 -0.064610004
000210 60 e3 b7 3b 2e 7d c8 bd d7 6a c0 bc d9 81 22 bd
       0.005611822 -0.09789501 -0.023488445 -0.039674614
000220 f2 20 13 bd 78 f7 1c bd 4f 3c 56 bc 66 13 60 bd
       -0.03592009 -0.038321942 -0.013075902 -0.054706
000230 d8 24 cc bc e1 51 a1 bc ea 42 cf bd 33 b3 0d be
       -0.024919912 -0.019692363 -0.10120185 -0.1383789
000240 aa d5 e2 bc f1 6b 7e bd 90 d3 03 3d 1a ad e5 bd
       -0.027689774 -0.06211466 0.032184184 -0.11214657
000250 e6 a7 41 bc 24 15 9c bd a3 e9 63 bd ad 3e b2 bc
       -0.011819815 -0.0762122 -0.055642735 -0.021758402
000260 7b 79 b8 bc 54 92 91 bd 77 82 31 bd a8 c8 83 bd
       -0.022518864 -0.07107988 -0.04333731 -0.064347565
000270 7e fc b4 bd a5 c5 b0 3b 76 9a 81 bd 07 4a 8c bc
       -0.088372216 0.005394655 -0.06328289 -0.017125143
000280 80 d2 35 bc 99 87 86 bd 6a ee c9 bd 4b 94 8b bd
       -0.01109755 -0.06568832 -0.09859927 -0.06815394
000290 62 e2 0c bd 70 86 ec bd 3a 81 23 bd 25 cf 41 bb
       -0.034395583 -0.115490794 -0.039918162 -0.002957293
0002a0 1c 55 8b bd 5c 53 a0 bd 67 3d 81 bd f2 2a e5 bd
       -0.06803343 -0.078283995 -0.0631054 -0.11189832
0002b0 cd 15 4b bd b1 6b 5b bc e9 70 92 bb 37 97 66 bd
       -0.049581338 -0.013392375 -0.0044690263 -0.056296553
0002c0 69 fa c2 bd a3 05 2c bd 75 5f 81 3b b7 0a 1a bd
       -0.09520418 -0.041997563 0.003948147 -0.037607875
0002d0 9b 43 6a bc be 47 19 bc 8c 35 a3 bd 2b df 8c bd
       -0.014298345 -0.009355484 -0.07969198 -0.068785034
0002e0 66 ee da bc 67 4f 92 bd 4c 9d 86 bd 2b 74 8c bd
       -0.026725005 -0.07144051 -0.06572971 -0.06858095
0002f0 0b eb 10 bd 6c aa b1 bc e7 85 88 bc 31 8f ee bd
       -0.035380404 -0.021687709 -0.016665412 -0.11648405
000300 ee fd 0a bd 68 84 c0 bc 0d 91 ae bd c4 6f b1 bd
       -0.033933572 -0.023500636 -0.0852376 -0.08663896
000310 74 aa 24 bd 5b c3 33 bd 66 cf b0 3d 5e 53 4b bd
       -0.04020162 -0.043887477 0.08633308 -0.049640052
000320 81 b2 19 bd 46 13 a6 bd e6 1c b5 bd 91 df 1f bd
       -0.03752375 -0.08109145 -0.088434026 -0.03903157
000330 27 9b 8b 3c e3 d7 9c bd 53 f1 79 bb 00 cb eb bd
       0.017041756 -0.076583646 -0.0038138225 -0.115133286
000340 1a a0 22 bc 26 25 b0 3b 4c 84 b5 bd b2 87 35 bd
       -0.0099258665 0.005375522 -0.08863124 -0.044318862
000350 35 27 92 bd 88 c9 2f bc 13 f9 72 bd d5 c2 d1 bd
       -0.071363844 -0.010729201 -0.059319567 -0.102422394
000360 f6 a9 af bd fc 01 73 bc 88 8c 91 bc a2 43 3e bc
       -0.08577339 -0.014832016 -0.017767206 -0.011612805
000370 ad 75 a2 bd c9 32 d0 bd e2 5b 81 ba ba 3c 29 bd
       -0.07932601 -0.101659365 -0.0009869302 -0.04131768
000380 75 cd c1 bd 0e 87 65 bd 82 cf 1e bd fc 72 d8 bc
       -0.09463016 -0.056037 -0.038772114 -0.026422016
000390 59 eb 80 bd 3a 98 ba 3d 8f b0 ba bd 53 e4 87 bd
       -0.06294889 0.09111066 -0.09115707 -0.06635346
0003a0 5b 64 9b 3a 63 f7 92 bc b5 5b 78 bd 89 b8 c6 bc
       0.001185547 -0.017940229 -0.060634334 -0.024257915
0003b0 01 b9 92 bd 5b 15 cd bd 05 dc 8d bd 55 2e 8f bd
       -0.07164193 -0.10013839 -0.06926731 -0.06991259
0003c0 4b 70 c2 bd 8c 31 94 bd df 14 19 be 90 11 22 bd
       -0.094940744 -0.07236013 -0.14949368 -0.03956753
0003d0 73 12 9f bd f9 4e fb bd a2 32 1c bc 03 11 5b bd
       -0.07767191 -0.12270922 -0.009533556 -0.05348302
0003e0 97 a8 af bd a2 0a 5c bd ac 54 41 bd f9 3c 1f bb
       -0.08577078 -0.053721078 -0.04719989 -0.0024297817
0003f0 60 27 a8 3c ac 9d ad bd c0 33 74 bd 32 87 cf bc
       0.020526588 -0.08477339 -0.059619665 -0.02533302

weight f4 [128, 256]
000000 73 cd 2a bd 68 d7 d6 3d 29 b6 c1 ba d2 6a b3 3d
       -0.041699838 0.10490304 -0.0014779019 0.08760609
000010 19 4c 04 bd 01 d3 5d 3b 50 ad db 3d 4c 6f 8e 3e
       -0.032299135 0.0033847692 0.10726416 0.27819288
000020 d6 38 da 3d 4c cc 5f bd 4c ac f9 bd 9e 9c 95 be
       0.10655372 -0.054638192 -0.12191066 -0.29221052
000030 8a d5 42 bd 4d ab b3 be bb 41 93 bd c9 36 cf bd
       -0.047566928 -0.3509163 -0.071902715 -0.10117871
000040 b1 0c 87 bd 58 01 38 bc f3 ae 1f 3e f1 86 50 3e
       -0.065942176 -0.011230789 0.15594082 0.20363976
000050 e4 f3 cb 3d e8 cf 70 bd 3c 83 4d bd e5 5d 3f be
       0.09958628 -0.058792025 -0.050173983 -0.18688162
000060 6a bd 00 3e 3b ce a6 3d 38 29 9e 3d ef 0a 47 be
       0.12572256 0.08144804 0.077227056 -0.19437765
000070 8e 2b a2 3d c9 40 ad bd 02 12 5c bd 40 91 2f bc
       0.07918464 -0.084596224 -0.05372811 -0.010715783
000080 64 18 41 3d bd 94 8a be 25 ff e2 bd 33 1b c9 3d
       0.0471424 -0.27066603 -0.11083821 0.09819641
000090 3e 67 78 bc a1 e1 a1 3d fc 62 c2 be 21 f2 2c 3e
       -0.015161334 0.079043634 -0.37966144 0.1688924
0000a0 65 ed 41 3e 27 9d 8d 3d 3b 8d 0a 3d 9d 4c 93 3c
       0.18938215 0.0691474 0.033826094 0.017980868
0000b0 4a e1 09 bc c4 27 58 3e 15 fd 44 3e 2a 3c 12 be
       -0.0084155295 0.2110892 0.19237168 -0.14280763
0000c0 d4 3a 05 3e f5 29 14 be 03 2e 5a bd f9 14 04 3e
       0.13010722 -0.1446913 -0.053266536 0.12898625
0000d0 fb dc 06 3b d1 1b 67 3d 4e eb e2 bd 58 82 05 3d
       0.0020578492 0.056423012 -0.11080037 0.03259501
0000e0 df 3c 91 bc 3c ce 42 be 54 0d 25 bd bd 95 fb 3d
       -0.01772922 -0.19023985 -0.040295914 0.1228442
0000f0 6b 37 a3 3d 1f 5b ca 3d 12 98 e1 3d a4 be fa 3b
       0.079695545 0.09880661 0.11015333 0.0076521207
000100 23 62 4f 3d a7 f2 74 bd f0 16 61 3d b8 cb 85 bc
       0.0506307 -0.059801724 0.054953516 -0.016332492
000110 c0 13 cf bd d6 08 0a 3e 4e 45 4b 3e f2 2d ee 3d
       -0.10111189 0.13479933 0.19850656 0.11629857
000120 76 4d 79 bb 49 ab fd bb de 76 95 be 8c 87 83 3d
       -0.0038040555 -0.007741366 -0.2919225 0.06422338
000130 87 d1 a2 bd 6a 54 1d bd 18 a3 25 be 3e 57 68 be
       -0.079501204 -0.03841058 -0.16175497 -0.2268953
000140 c9 74 9b 3b da dd 20 3e fb 6b c5 bc 34 8f f7 3c
       0.0047441465 0.1570963 -0.02409934 0.030219652
000150 fb 2d f0 3d e7 a8 a4 be ad dd 00 be 17 21 42 3e
       0.1172752 -0.32160112 -0.12584563 0.18957935
000160 eb ed 0c 3e 10 d6 ed 3c ce 49 0f 3c 30 4f 36 bc
       0.13762634 0.029032737 0.008745624 -0.011127278
000170 fc 5e d0 3d 67 18 68 bd d4 af 68 be cd 70 3b 3d
       0.10174367 -0.056663897 -0.22723323 0.045761872
000180 9b 8f 6d 3d b2 9c 9c bb 07 25 1f be 37 25 63 3d
       0.05799828 -0.0047794217 -0.15541469 0.055455413
000190 82 f1 65 3d cd e5 0b 3e 88 12 ba 3d c6 6d 4f be
       0.056138523 0.13661881 0.09085566 -0.20256719
0001a0 f0 94 14 3d 1d 2c fc 3d 2e 70 0b 3e fc e7 a1 3d
       0.03627485 0.123131014 0.13617012 0.07905576
0001b0 08 38 01 3e 27 f3 8d be 90 11 ec bc d4 bd 0c 3d
       0.1261903 -0.27724573 -0.028816968 0.03436072
0001c0 34 a6 6a be 2f 35 5f bd 5f 68 33 be 09 67 d3 be
       -0.22914964 -0.05449408 -0.17520283 -0.41289547
0001d0 4a 2f 05 be ec df 54 bd ff 66 fd 3d b5 ae ee 3c
       -0.1300632 -0.05197136 0.123731606 0.029136041
0001e0 a4 57 43 bd 48 4c 41 3c dd e9 1b bb c0 c7 d4 bd
       -0.047691002 0.011797972 -0.0023790516 -0.10389662
0001f0 7c 69 9e 3d ee 22 06 3e 23 92 b2 bc 26 e9 0e be
       0.07734963 0.13099262 -0.021798199 -0.13956127
000200 8e 82 73 3d ac 32 ac 3d 8d a6 9f 3d af c9 cb 3d
       0.05945068 0.084081024 0.07795439 0.099505775
000210 22 f6 9f 3d fd f7 23 3e 40 21 93 bd 50 ca a2 bc
       0.07810618 0.16012569 -0.07184076 -0.01987186
000220 3c 2e 68 bd cd ad 7a be b0 29 c8 be 2a 97 17 3e
       -0.056684718 -0.24480362 -0.39094305 0.14803758
000230 b2 40 58 3e 5b a6 c2 3c e2 ce 50 3d 2f 34 19 be
       0.2111843 0.023760965 0.05097855 -0.14961313
000240 e8 65 c1 3d 58 37 3c bd c5 67 2a 3e f4 ad 5a be
       0.09443265 -0.045951217 0.16641147 -0.2135542
000250 c9 80 86 be d3 e3 42 3e 0d 3c 21 bd ea a4 d8 be
       -0.2627013 0.1903222 -0.03936391 -0.4231332
000260 d5 ec 19 be 62 b4 98 3c ee b8 ec bc 18 2d 5b 3d
       -0.1503175 0.0186407 -0.028896775 0.0535098
000270 42 40 b6 bd 58 30 e4 bd 75 30 00 3e 48 3a 95 be
       -0.08898975 -0.11142033 0.12518485 -0.29146028
000280 b5 5f 03 bd 96 d1 b8 3d 18 b0 14 be b8 81 75 bc
       -0.032073695 0.0902435 -0.145203 -0.014984541
000290 b1 a7 29 bd a9 02 b1 3c ec 12 61 3d ec 74 cc 3d
       -0.04141969 0.021607714 0.054949686 0.099832386
0002a0 a0 06 08 3d 41 55 41 be 19 cd aa 3d e5 a5 a0 3c
       0.033209443 -0.18880178 0.083399005 0.019610355
0002b0 d7 fd 70 be c4 ef 76 3d bd 9d 86 3e 3d 5c 4e 3d
       -0.23534332 0.060287252 0.2629222 0.050380934
0002c0 58 79 8f 3c fb 54 1e 3c 02 1b ae bc 2e c2 f3 bc
       0.017513916 0.009663816 -0.021253113 -0.029755678
0002d0 77 cd 21 3e 78 54 af be 75 ce 92 bd 66 c8 34 3e
       0.15801035 -0.34244132 -0.07168285 0.17654571
0002e0 22 ac c2 be 42 6f bd bd a0 9c 0e bd ca f1 6e 3e
       -0.38021952 -0.09249736 -0.034817338 0.23334423
0002f0 06 b1 85 3d 51 9d 35 3d 48 48 92 3d fe 84 cc 3d
       0.06527905 0.04433948 0.07142693 0.09986304
000300 82 69 fe bb be 3a d4 3b 48 6d f6 3d 96 63 a3 3d
       -0.0077640424 0.006476729 0.120325625 0.07977979
000310 f6 b9 01 3e 9c d0 0a 3e 8c e5 1e be 88 2e d3 3c
       0.12668595 0.1355614 -0.15517253 0.025779024
000320 63 5d 6a 3d e5 07 2c 3d 4c 63 80 3e 74 5a 93 bd
       0.057217967 0.041999716 0.25075758 -0.07194987
000330 9c 82 03 3e 6f 41 e2 3c 9d 23 17 3e cf 10 06 3e
       0.12842792 0.027619092 0.14759679 0.1309235
000340 8b 30 1d bc c1 0e 51 3d 2b 09 5b bd 72 e2 05 3e
       -0.009594093 0.05103946 -0.05347554 0.13074663
000350 3d ca 85 3e df d4 3c bb 1a 53 24 be d4 f9 26 bd
       0.26130858 -0.0028813404 -0.16047326 -0.0407656
000360 06 fb 21 3e 0b 72 16 bd 1d 6f 09 bf ec e3 dc 3d
       0.15818414 -0.036729854 -0.5368517 0.1078566
000370 48 cb 65 bb 29 c5 53 be 4b 37 44 3d f6 af 0e 3d
       -0.0035063792 -0.2068068 0.047904294 0.03483578
000380 db c3 c1 3d 0a 90 88 bc 63 c0 66 3d 92 fc 05 3e
       0.094611846 -0.016670246 0.056335818 0.13084629
000390 bc c2 2c be 4a e8 b4 3c 18 16 09 3e 3d 51 2a 3e
       -0.1687116 0.02208342 0.13387334 0.16632552
0003a0 a6 4f bc 3d 8d 5e 20 3e 4d 4b f9 bd 4e fd 85 3d
       0.09194879 0.15661068 -0.121725656 0.06542455
0003b0 37 14 e8 bc 40 92 b1 3d d8 9c e0 3d 5f 99 ac bd
       -0.028329952 0.08670473 0.109674156 -0.08427691
0003c0 34 af ba 3d 0a 06 03 bd 3a 62 0b 3c 1d 06 23 be
       0.091154486 -0.03198818 0.008507306 -0.15920301
0003d0 4e 1f 82 bd 8a 7a d0 3d de 50 34 bd 21 22 32 be
       -0.06353627 0.101796225 -0.044022433 -0.17395832
0003e0 d7 de 34 3e ea 7c 6b 3d 66 97 0f 3e 86 ed c8 3d
       0.17663132 0.057492174 0.14022598 0.09810929
0003f0 0b c2 ac be 1c 1e fe 39 cc 5a 5f be ee 64 13 bd
       -0.33741793 0.00048469089 -0.2181198 -0.035984926

bias f4 [128]
000000 4d 9b 4f be fc 5b de bc f8 ea a2 3e a0 01 d3 3c
       -0.20274086 -0.027143471 0.31819892 0.02575761
000010 dc 3f 3a 3b fa ce 21 be a2 d1 5c be 81 01 0b 3e
       0.002841941 -0.15801612 -0.21564344 0.13574792
000020 62 1f 10 bd 3d 36 bb 3c be 52 21 3e 1b 5c 8f be
       -0.03518618 0.022853011 0.1575422 -0.27999958
000030 d6 aa 9b be ef a8 fb bd c9 7d 25 be 38 a8 04 be
       -0.30403775 -0.12288081 -0.16161264 -0.12954795
000040 e9 47 ca 3d 62 9a 47 be 68 9c d8 3d 93 dd 2b be
       0.09876997 -0.19492486 0.10576707 -0.16783743
000050 c9 9a 26 be af a7 0b 38 7d a2 b3 3e 9c 4b e2 bd
       -0.16269983 3.329635e-05 0.35084906 -0.110495776
000060 5c 75 e3 3d 1a cc d7 be 9c 43 fd 3e 23 08 04 3d
       0.11106369 -0.42147905 0.49465644 0.032234322
000070 a0 78 ee bd a8 ea 67 bd b7 26 8c 3e 1f 0b 30 be
       -0.11644101 -0.05662027 0.27373287 -0.17191742
000080 dc 6d f9 3c 90 57 aa bb 4f 05 f9 bd b9 8a 97 3e
       0.030447893 -0.0051984265 -0.12159216 0.29598024
000090 19 e4 e4 bc f3 a2 95 bd 51 1e 37 be e3 7f bb bd
       -0.027940797 -0.07306471 -0.17882659 -0.09155252
0000a0 84 c5 ce bd fe 7e 11 be 1d d6 20 3d 96 bf ae bd
       -0.10096267 -0.142086 0.039266694 -0.08532636
0000b0 05 a3 4f be f0 c0 65 bb 25 f3 b5 3d 1e 01 78 bd
       -0.20277031 -0.0035057627 0.08884267 -0.06054794
0000c0 04 df 23 3d 28 0d 76 bd cc cb 0e bb 2f dc 5d 3e
       0.040007606 -0.06007114 -0.0021788953 0.21666025
0000d0 da c0 e0 3d db 18 db bd 7f a4 51 bd 3f 95 62 bd
       0.109742835 -0.106981 -0.051182266 -0.055318113
0000e0 a9 ed 32 be fe c9 66 3e dc d2 08 3e 3d fb 16 bd
       -0.17473473 0.22537991 0.13361686 -0.036860693
0000f0 5b cb 1d 3e 7a d7 7d 3e cb 75 10 be 6f f9 b4 bd
       0.15409605 0.24789229 -0.14107434 -0.08836638
000100 e1 96 82 3d 0a 93 e5 3d 58 6a 04 3d be f7 e8 3c
       0.06376434 0.11209686 0.03232798 0.028438445
000110 c2 ba ca bd 3f b2 a8 3e dc 0b 25 be 5e 0b bc 3d
       -0.098989025 0.3294849 -0.16117805 0.091818556
000120 c9 f0 8d 3e bb 79 8e 3d af c6 69 be 90 a1 45 bc
       0.27722767 0.06956812 -0.22829698 -0.012062445
000130 04 69 7b bd ce ed e8 bd ca a2 1f 3e 2c a1 72 bd
       -0.061379448 -0.11373483 0.15589443 -0.059235737
000140 1a 8c 46 bd 74 a3 86 3d 8d f6 a3 bd 71 2a 27 be
       -0.048473455 0.06574145 -0.0800601 -0.16324784
000150 ab 6b 32 3e 5a af 81 be e3 2f 82 ba 8b 25 a3 3e
       0.17423885 -0.25329095 -0.0009932484 0.3186458
000160 7e cb 94 bc 8d 7f 4e bd 1d a3 2b 3d b7 3e 35 be
       -0.018163439 -0.05041461 0.041903604 -0.17699705
000170 d2 87 7c be 52 07 6f bd 2c 4a 2e 3e 23 b5 69 3e
       -0.24661186 -0.05835659 0.17020482 0.22823004
000180 77 b6 de 3b 1b 69 b9 be 29 71 1a be 75 a1 4f be
       0.006796654 -0.36213002 -0.1508223 -0.20276435
000190 4c 05 b9 bd 93 68 2e 3e 1e 25 96 3d ef 9c f5 bb
       -0.090342134 0.1703208 0.07331298 -0.0074955146
0001a0 12 a3 da bd 9a 5b 02 be 76 ca a8 3b 10 f1 f5 bc
       -0.106756344 -0.12730256 0.0051510883 -0.030022174
0001b0 09 f8 0a 3d 51 40 aa bd 82 b9 92 3e ef 71 38 be
       0.03392795 -0.08313049 0.28657156 -0.18012212
0001c0 cf 93 84 be 08 6f 77 be 9a 72 45 3e 1b c1 2a 3c
       -0.2589402 -0.24163449 0.19281998 0.0104220165
0001d0 f8 37 4b 3e 37 ba 43 bc 32 36 d6 3c 71 ca 57 3d
       0.19845569 -0.011946253 0.02614889 0.052683298
0001e0 67 fe 1a bd 89 e6 c2 ba d1 bc 50 bd 20 7c aa 3e
       -0.037840273 -0.001486973 -0.05096132 0.33297825
0001f0 68 35 5b 3d 8b 3f 81 be c3 de 6d 3e 48 e6 df bc
       0.05351773 -0.25243792 0.23229508 -0.027331486

weight f4 [26, 128]
000000 10 25 93 bc 58 6b b2 be e8 a5 68 3d 34 d7 74 3d
       -0.017962009 -0.34847522 0.056798846 0.059775546
000010 a4 41 bb 3c fa f7 03 3e 84 a5 3f be 75 51 af bd
       0.022858448 0.12887564 -0.18715483 -0.085604586
000020 f2 5f 96 bd 8c 7f 09 be 0e c7 de 3d b7 2a 76 be
       -0.07342519 -0.13427562 0.108778104 -0.24039732
000030 9d e9 c0 3d a8 0b b4 be e1 fa 5f bb a9 48 a0 be
       0.09419558 -0.35165143 -0.0034176635 -0.31305435
000040 08 04 90 be 47 ae 7a be 74 43 81 3d 50 a4 52 bb
       -0.28128076 -0.24480544 0.06311694 -0.0032141395
000050 4b 60 90 3d 97 6e 71 3c ae be 1c 3d f5 7e 25 3e
       0.070496164 0.014735839 0.038267784 0.16161712
000060 85 fa 0e 3d 82 6c 26 bd 03 39 1a 3d 13 e1 8c 3d
       0.034906883 -0.040630825 0.037652027 0.06878867
000070 e3 27 8b bd 91 aa a0 bd 6c fc 4f 3d 11 cf d3 bd
       -0.06794717 -0.07845033 0.050777838 -0.10342229
000080 e6 54 95 3d 64 3d 28 be 06 b4 bb 3c c9 6e 17 bc
       0.07291584 -0.16429669 0.02291299 -0.009242722
000090 ca 1d df 3c 3d c6 c6 bd 4e b9 ee 3d 00 27 b2 3d
       0.027235884 -0.0970578 0.11656438 0.08698845
0000a0 d8 6c c3 bb 5f 98 ff 3d b1 bf a1 3d 9e 94 10 be
       -0.005963903 0.12480234 0.0789789 -0.14119193
0000b0 98 ac ca bd 73 1a 83 bd ca f4 26 3d 78 9a a6 bd
       -0.09896201 -0.06401529 0.040760793 -0.08134931
0000c0 e3 42 1e 3e 3e a6 ee bc 93 31 02 3d 8a 07 e4 bd
       0.15455203 -0.029132005 0.03178556 -0.111342505
0000d0 e4 f0 95 3c 6d 42 46 be b1 dd e0 3d e6 1e 3f be
       0.018303342 -0.19361277 0.10979784 -0.1866413
0000e0 51 28 3b 3d 79 9b 34 3e f2 e3 0b 3e 65 9c e3 bd
       0.045692746 0.17637433 0.13661173 -0.11113814
0000f0 15 ae 68 bd 4a b1 c8 bd 01 dd 25 bd 16 d9 75 be
       -0.056806643 -0.0979944 -0.04049397 -0.24008593
000100 d3 1a fe bd c1 6b 70 ba 90 50 15 3d 51 c8 8a be
       -0.1240746 -0.000917133 0.036453784 -0.27105954
000110 16 79 af bd b3 4a 93 3d 00 d6 bf 3d 7c f6 13 bc
       -0.08568017 0.07191982 0.09366989 -0.009030934
000120 d5 01 ac bc 07 79 1a bc 20 34 d9 3c 40 41 d9 3c
       -0.020996967 -0.009428269 0.026514113 0.026520371
000130 76 12 3a be 65 36 84 bd 16 72 39 be dd 4e 39 3c
       -0.18171105 -0.064556874 -0.18109927 0.011310306
000140 7e 6b c7 bd 9a b5 94 3c 40 c8 f5 3d 51 ab 31 3e
       -0.097372994 0.018153 0.12001085 0.17350508
000150 ca 91 8c bd f9 e0 9d 3c dd 1c 9f 3b 25 5b 83 3d
       -0.068637446 0.019272314 0.0048557357 0.06413869
000160 90 c1 db bd e1 b9 8a 3e c7 c4 05 3d c5 89 2d 3c
       -0.107302785 0.2709494 0.032658365 0.010591929
000170 0c d5 3c bd fc 9e e9 bc 08 fe 10 bc 81 58 8a be
       -0.046101615 -0.028518192 -0.008849628 -0.27020648
000180 5b 00 95 3b 1c 1e 23 bd 44 e8 31 3e f0 fc 25 be
       0.0045471615 -0.039823636 0.17373759 -0.16209769
000190 38 7b 25 be d7 24 8c 3d 2e 73 cc 3d 42 77 81 be
       -0.16160285 0.06842964 0.09982906 -0.252863
0001a0 0c 02 91 3d 04 1b 43 be 9f 0e 35 bd 99 81 fc bd
       0.070804685 -0.19053274 -0.044203397 -0.12329406
0001b0 fc ac a4 3d bf a1 56 3b 8d ff 82 3d 61 a1 5e be
       0.08040807 0.0032750217 0.06396399 -0.21741249
0001c0 62 28 b2 be 8e 5b 04 bb 5f 5d 48 be a3 e9 50 3d
       -0.34796435 -0.0020196172 -0.19566868 0.051004063
0001d0 a4 e6 19 3e 77 1e 44 be 41 6c b8 be 02 45 03 be
       0.15029389 -0.19152246 -0.3602009 -0.12819293
0001e0 04 16 ea 3c 88 53 a3 3b 5e d4 46 3e de d7 42 3c
       0.028574951 0.004984323 0.19416949 0.011892287
0001f0 f6 ac 62 3e 74 b5 21 be f1 eb 84 be 1b 99 66 be
       0.22136292 -0.15791875 -0.2596126 -0.22519343
000200 89 bf 7d bb 4f 20 46 3b 1f 9f c1 bd d4 57 1f be
       -0.00387189 0.003023166 -0.09454178 -0.15560848
000210 bc 2d 13 3e 9c 49 bd bd a4 dd 57 be e9 25 32 3e
       0.14372915 -0.092425555 -0.21080643 0.17397274
000220 b2 b0 33 be 6d 04 7a be 71 88 00 3e 88 64 0e be
       -0.17547873 -0.24415751 0.12552048 -0.13905537
000230 f1 ef 82 bd 0c c6 12 3e fd dc 12 bd cd c0 e1 3d
       -0.063934214 0.14333361 -0.035855282 0.11023102
000240 b3 cb e0 3d 24 44 54 be 32 b8 54 be a0 1e 8a bd
       0.109763525 -0.20729119 -0.2077339 -0.067441225
000250 5f d5 6e bb 18 0f 28 bd f5 50 0b 3e a7 df 73 3d
       -0.0036443097 -0.04103002 0.13605101 0.059539463
000260 6d 44 73 be b0 86 a4 be 0f 32 d0 3d ea 9d a5 be
       -0.23756571 -0.32134008 0.10165798 -0.3234704
000270 d8 bb 21 be 59 0d 98 bd a4 9e 18 3e b7 47 0a be
       -0.15794313 -0.07424421 0.14904267 -0.1350392
000280 4c 03 2b 3d e8 f0 0e 3e 79 9f f2 3d 8e ca ab 3d
       0.04175119 0.13959086 0.11846823 0.083882436
000290 ff 08 96 bc be 6b 26 be 24 3b 08 be 49 70 d0 be
       -0.018314837 -0.16252038 -0.1330381 -0.40710667
0002a0 c0 21 05 3e 6d ae a1 3d ae b5 6d bd ee c5 2e bc
       0.13001156 0.07894597 -0.05803459 -0.010667307
0002b0 9c 5d 88 bd e7 2a 0e 3e e0 3d 63 3d e3 a6 a7 3c
       -0.066584796 0.13883553 0.05547893 0.02046532
0002c0 ce 44 6b be e1 c4 e4 be 24 c4 2f be bd de e7 bd
       -0.22975466 -0.44681457 -0.17164665 -0.11321781
0002d0 9b d5 e4 3a a8 ec 42 be e5 c2 91 be 96 6b 0d 3d
       0.0017458679 -0.1903559 -0.28469005 0.03452643
0002e0 2b f8 ce bc 61 20 69 3d 33 97 4e 3d 6f 4f 2b 3e
       -0.02526482 0.056915645 0.050437164 0.1672952
0002f0 ca 85 39 be 6d 16 10 bd 99 d3 30 be d2 f3 81 be
       -0.18117443 -0.035177637 -0.17268218 -0.25381333
000300 87 2c e8 3c 61 61 ac 3d 67 29 87 bd 9c 33 8f be
       0.028341545 0.08417011 -0.06599694 -0.27969062
000310 7c c1 2e be 47 17 c6 bd 92 3b c9 bc 9e 23 7a bd
       -0.17065996 -0.096724086 -0.024564538 -0.061069123
000320 e7 dc cc 3d f4 72 05 be 68 bc d9 bd bc 29 85 3c
       0.10003071 -0.13032132 -0.10631639 0.016255252
000330 d8 4e 13 be 9d a5 ca bc 5e 9c bc 3d 37 9c eb be
       -0.14385545 -0.024737174 0.09209512 -0.4601762
000340 85 44 c5 3b 38 d0 15 bd f4 f4 1a be 37 11 ff bd
       0.006020131 -0.036575526 -0.15132505 -0.12454455
000350 7e ca 9d bc b2 94 1b 3e a5 18 9d 3d 28 a5 77 3e
       -0.019261595 0.15193442 0.07670716 0.24184096
000360 af 55 04 3e 45 6a 32 bd 2a bc 97 3c ba 8e 87 bd
       0.1292331 -0.043558378 0.01852234 -0.0661902
000370 4f 3c 9d be 7b 48 b8 bd cf f5 c0 3d 50 f9 9f 3d
       -0.30710074 -0.089981996 0.09421884 0.078112245
000380 b5 08 7f bb 6e cb 89 3c 9a 66 8d be 2e 1c 9d bd
       -0.0038915102 0.016820636 -0.2761734 -0.076713905
000390 54 d2 d9 3d 06 a4 b3 bd 89 ea aa be f1 f9 5e be
       0.1063582 -0.08771519 -0.3338206 -0.21775033
0003a0 7f 26 b9 3d c9 65 e5 bd 11 33 11 3e 44 d3 9b bd
       0.09040546 -0.112010546 0.14179637 -0.07608655
0003b0 89 ca 37 bb 85 30 a6 bd 4f 7f 88 3d 61 28 91 3c
       -0.0028044304 -0.08114723 0.06664907 0.01771945
0003c0 bb 1d 2a bd 13 c4 bc be 55 75 67 be 64 96 38 3c
       -0.04153226 -0.36868343 -0.22603352 0.011266325
0003d0 6a de 5a be 39 be 97 be 77 8d 5e 3d ba 9c 2d 3e
       -0.21373907 -0.29637316 0.05433413 0.16954318
0003e0 73 11 cc bd e0 3e 03 3e 59 ff 29 be 06 90 e2 3d
       -0.09964266 0.12816954 -0.16601314 0.110626265
0003f0 56 8f d6 be 63 13 84 3d 09 3f 7e bd 98 fc 7a be
       -0.41906232 0.0644901 -0.062071834 -0.2451042

bias f4 [26]
000000 77 6f 85 bd 05 91 8f 3e 45 19 71 be b1 95 26 bd
       -0.06515401 0.2804033 -0.23544796 -0.0406701
000010 72 19 29 3e 05 18 c5 bd aa bf 7d 3d a8 15 a3 3d
       0.16513613 -0.09623722 0.061950363 0.07963115
000020 c6 9a 11 bd 1e 1b ad bd 21 24 d0 3d 86 2f f4 bd
       -0.035547994 -0.08452438 0.10163141 -0.11923127
000030 fc ea 44 3e ad 49 25 be 4a 1e 89 3d 1d 7e 0f bc
       0.19230264 -0.16141386 0.0669523 -0.008758095
000040 ed fe 5f 3e b7 d5 82 be 32 c4 a3 bc 72 0a 32 be
       0.2187459 -0.25553676 -0.019991014 -0.17386797
000050 81 e4 2a 3d 81 d6 63 3c 9b 4a 61 3e 79 56 16 3e
       0.041721825 0.013906122 0.22001116 0.14681424
000060 8a 2f cc bc ef 7f 75 bd
       -0.024925012 -0.05993646
